saved_agent_test.pt (torch, 916731 bytes, 13 tensors)

conv1.0.weight f4 [64, 18, 5]
00000000: 8d5c 023d b163 103e 72bd a8bf 3143 45bf
00000010: 47b1 17bf 0c41 d7bd 3743 63bf 8ab9 23be
00000020: ec2e 47be 7a69 d2be ab86 53bd e0f2 eebc
00000030: c5df aabf 138d b1be e2ee d6be cfb9 c8bd
00000040: 5d2e 96bf 4006 aebe 8264 22bd f0d0 cfbe
00000050: 295f 80be b980 a4be acf4 fabe 87fc 6abf
00000060: f67d 80bf 5e8c edbe 4b26 52be e85d 97be
00000070: c243 00bf d5a6 91be a7ef 4c3a f390 1c3e
00000080: ea83 db3d 90c9 b93e 47ea 863d 8a6a 40be
00000090: 355b b1be d07e fdbe d145 87bf 1d5f 6cbf
000000a0: d87a 47bf 73e5 83bf 4c3b 30bf de59 09bf
000000b0: 5d2a 1cbe 528f dd3e 1e31 553e d737 fa3c
000000c0: ab43 ae3e 105a 933d 8e9f 44be 3a95 7abe
000000d0: f739 8bbe fd8f 13bf 31f4 1ebf ec06 4ebe
000000e0: 24d0 73be e0ab 73be a30f 1d3d ca6f 483e
000000f0: d2ca 74be 3b22 49bd e1f3 5c3c 0199 2ebe
00000100: 902b 06be 9106 94be 79d6 d9be 9701 46bf
00000110: e060 93bf f0b8 5bbf 4c54 fcbe 1819 19bf
00000120: 05e0 9bbe b006 f53c 3092 1e3d 6a1e 6b3e
00000130: 7eef 853e dd8b 5b3e 98dc 21bd 7b67 be3c
00000140: 789f 653f 4166 a83f 99ce 2c3f 6707 f33e
00000150: b442 c13d 570f 9b3e 1d09 5b3f efa0 aa3f
00000160: 8a28 b33f f79d 9d3f 8393 a9bd ffbe 493e
00000170: fe8c 83bf cabe 193f 3ff1 e4be 9f30 c0bf
00000180: 0b02 c33e 6af7 61bf 37e4 f73d d02e 0ac0
00000190: cec1 45be 7741 3abe 95f3 17bf 5e9b 90bb
000001a0: e9fe d2be 92e9 93bf e3ad a3bd 3409 4dbf
000001b0: c4c4 3fbc 172d a0bf 9fb8 ec3a c28d c6bc
000001c0: 7a90 f7bd 1770 38be 3c1e 05be a182 04bf
000001d0: 69b6 64be c895 7bbe ca83 e0bd 6404 50be
000001e0: 839f 02be aa6b 29be 8f1a 1d3e 932e 343e
000001f0: a3c6 fe3d bb45 3e3e af5b 87bd c4be 88be
00000200: 1920 9fbe 97b4 4cbe d28e 46bf 30c5 0abf
00000210: f5ae 09bf b4ce 49bf fbaf 06bc f42d 74be
00000220: 4620 63bb abb7 c8bd 12b1 963e 4fec 353e
00000230: 5cbb 8f3b 02b3 75be 08c7 9ebe 9f36 97bd
00000240: a266 f1bd 4f95 14bf cbc8 dfbe 7aa0 98be
00000250: ce15 5cbe 409f 5bbd 9751 3b3e 657c 373e
00000260: 3bac 733c 0155 b53e 6d0d a73e 0de3 913c
00000270: f263 133e 30bb 54bd 7f76 fe3c 6c0d cfbc
00000280: 5719 1cbf e975 44bf 9a8f 06bf eaf4 29bf
00000290: e35c 8fbe 390c a03e f1f0 143d c43e b33d
000002a0: 2d40 f33e 32f1 a03e 4ba7 df3d 6292 813f
000002b0: 6592 a8bd 743e 73bd 1af0 89be 038d 81be
000002c0: f20d acbe 74ab 973e 4c72 033f 3e4f cc3e
000002d0: 4ca4 7f3e f58c d43c 9d87 8d3e 242c 433f
000002e0: 0d6a fdbe 7a9c 033e 1679 0bbf 25c2 c6be
000002f0: 9600 86bd 7ed1 b1bf 05f5 3abc a53e 2038
00000300: 7a2d 2dbc 8a2e b83b e588 33bf 9605 c7bc
00000310: 927a 5abe 75b9 2dbe 4ba0 38be a3ed acbf
00000320: 0ce3 39bf 651d 2cbf 2c23 43bf aa2a 37bf
00000330: 4067 34bf faba 63bf 3b4f b7bd 3c2d b3be
00000340: 882e 00bf 166a c93d 052a df3d 3ff5 18be
00000350: a300 c43d 80d2 4dbe bb33 87be 643e 25bf
00000360: 2f95 3abf e9db 7bbf f101 5ebf e397 4fbf
00000370: 35d8 15bf cd2f 97bd 5f26 95be b479 16bf
00000380: c461 073e 88aa 8d3d 7ea9 8e3c f378 ee3d
00000390: 4f82 cd3b b737 e9bd 4230 12bf 73fe 07bf
000003a0: 545a 36bf a5b9 10bf 31ad 33bf 98f5 aabe
000003b0: 6a45 cfbd e772 14be 8eb6 13bf 9f90 123d
000003c0: 09ef c5bd 1b23 f83d 9fd3 2abc 0699 6f3e
000003d0: 3908 163e 3a9e 29bf d124 c0be 2a52 41bf
000003e0: d42a 45bf 3f66 81bf 8463 30bf 7b93 f0bc
000003f0: 4705 cbbc 9d6b 07bf c382 38bd 6917 5abd
0.031826545 0.14100529 -1.3182814 -0.7705565 -0.5925488 -0.105104536 -0.88774437 -0.15988746
-0.19451493 -0.41096097 -0.0516421 -0.029168546 -1.3349539 -0.34677944 -0.41979128 -0.09801065
-1.1732899 -0.33989143 -0.039646633 -0.40589094 -0.250726 -0.32129458 -0.49014795 -0.91791576
-1.003844 -0.46396154 -0.2052242 -0.29563832 -0.5010339 -0.28447595 0.00078176934 0.15289669
0.1071852 0.36286592 0.065876536 -0.18790641 -0.34639898 -0.49510813 -1.0568181 -0.9233263
-0.7792182 -1.0304397 -0.6884048 -0.5365275 -0.15250535 0.43273407 0.20819518 0.030544205
0.34036002 0.071949124 -0.1920149 -0.24470988 -0.2719266 -0.57641584 -0.62091357 -0.20119828
-0.23809868 -0.23796034 0.03834499 0.19573894 -0.23905495 -0.04910491 0.01348588 -0.17050554
-0.13102555 -0.2891126 -0.42546442 -0.77346176 -1.1513939 -0.8582907 -0.49283063 -0.59803915
-0.3044435 0.029910415 0.038713634 0.22960821 0.2615928 0.21440072 -0.039517015 0.023242703
0.89696455 1.3156205 0.67502743 0.47466585 0.09436551 0.3028514 0.8556078 1.3330363
1.3996747 1.2313832 -0.08280089 0.19701765 -1.0277402 0.60056746 -0.44715306 -1.5014838
0.38087496 -0.8826815 0.121040754 -2.1591072 -0.19312212 -0.18189035 -0.5935605 -0.0044130525
-0.41210106 -1.1555655 -0.07992151 -0.8009217 -0.011704627 -1.251376 0.0018060392 -0.024237517
-0.120881036 -0.18011509 -0.12999815 -0.51761824 -0.22335209 -0.24568856 -0.10962637 -0.20314175
-0.12756161 -0.16544977 0.15342163 0.17595892 0.12440231 0.18581288 -0.06609284 -0.26708043
-0.31079176 -0.19990765 -0.77561677 -0.54207134 -0.5378259 -0.7883103 -0.008220668 -0.23845655
-0.0034656688 -0.09800657 0.2943197 0.17765926 0.0043863486 -0.23994067 -0.31011224 -0.07383465
-0.11787154 -0.58040327 -0.4370788 -0.29809934 -0.21492693 -0.05361867 0.18292843 0.17918546
0.014872606 0.35416415 0.3262743 0.017808462 0.14393595 -0.05193633 0.031062363 -0.025274955
-0.60976166 -0.76742417 -0.5256287 -0.66389334 -0.28000554 0.31259325 0.036362592 0.08752206
0.475099 0.31434017 0.109205805 1.0122797 -0.082310475 -0.05938573 -0.26940995 -0.25302896
-0.3360439 0.29622996 0.5134628 0.39904207 0.24965018 0.02594612 0.27642527 0.7623923
-0.49494973 0.1285266 -0.5448164 -0.38819996 -0.065430805 -1.3892057 -0.011410956 3.8205315e-05
-0.0105699245 0.0056207823 -0.7013076 -0.024294656 -0.2133582 -0.16965277 -0.18029897 -1.3510021
-0.7261207 -0.6723235 -0.76225543 -0.71549475 -0.70470047 -0.8895718 -0.08950659 -0.3499545
-0.50071 0.098346874 0.108966865 -0.14937304 0.09570434 -0.2009983 -0.26406655 -0.64548326
-0.72883886 -0.9838243 -0.8672171 -0.81091136 -0.5853303 -0.07382164 -0.29130837 -0.58779454
0.13220888 0.06917292 0.017414805 0.11644163 0.0062716375 -0.1138758 -0.57104886 -0.53122634
-0.7123158 -0.5653327 -0.70186144 -0.33390498 -0.101206616 -0.14496957 -0.5770043 0.035782453
-0.09664733 0.12116071 -0.010426431 0.23398218 0.14651574 -0.6625706 -0.3752809 -0.75516
-0.77018476 -1.0109328 -0.6890185 -0.0293672 -0.02478279 -0.5289858 -0.04504658 -0.053244982

conv1.0.bias f4 [64]
00000000: b85d a1be 4072 0abf 1d3f 61be 6902 37be
00000010: 2ad5 d43d b22a d83e 71f5 93bf 8705 643e
00000020: a6f3 353e ed61 873b 4e1f e83e 9e39 aabd
00000030: 11f1 4a3d a995 27be f94c 4d3e 4010 973e
00000040: 2ade 223c 08cf b0be b3d0 85bd 4fbd c83e
00000050: f5c0 a3be cb7a 8bbd 0e81 f0bd be65 273d
00000060: dfe3 8dbe 7f29 813d efb1 a83e 63b1 0bbe
00000070: 701d cebd 1df7 a7bd 8461 83bc 1385 76be
00000080: 7289 09bc f54f a13c 684d 703e 4ed8 eebc
00000090: 4ac6 263e 09c3 583e 5410 25bd 9902 3f3d
000000a0: 6e6c 2c3e 4d6c eabd 7324 aebd f364 a83e
000000b0: 7699 97be 1c44 193f 0dd6 2abe d695 efbb
000000c0: aeed 723e 69ab bdbd 959a 9a3d 736c f9be
000000d0: 34f3 143b e0b5 433e 29ef 81bd 9400 b93e
000000e0: b73f 033e b418 87be a4f1 0b3e c06a d33c
000000f0: 0ad4 27be 7d5c 15be 14a2 3dbf 16c8 b1bd
-0.31516814 -0.5408058 -0.21996732 -0.17872013 0.1039222 0.42220074 -1.1559278 0.22267734
0.17768726 0.0041315467 0.45336384 -0.08311771 0.049546305 -0.16365685 0.20048894 0.29504585
0.009940663 -0.34532952 -0.06533947 0.3920693 -0.31983152 -0.0681053 -0.11743365 0.040868513
-0.27712914 0.06306743 0.32948253 -0.13641886 -0.100642085 -0.0820143 -0.01603771 -0.24074201
-0.008394586 0.019691447 0.23467028 -0.029155876 0.16286579 0.2116815 -0.040298775 0.046633337
0.16838238 -0.11446438 -0.08503046 0.32889518 -0.2960927 0.5986955 -0.16683216 -0.007311563
0.2372348 -0.092612095 0.075490154 -0.48715553 0.0022727968 0.19112349 -0.06344444 0.36133254
0.12817274 -0.26386034 0.13666397 0.025807738 -0.1638948 -0.14586063 -0.74075437 -0.086807415

conv2.0.weight f4 [128, 64, 5]
00000000: 1b17 80bd 30b8 503d 718c dc3d 1732 933d
00000010: 7a6f 883e 8410 babd 7d6a 1fbe 467e c4bd
00000020: ba89 8f3e c27d bb3d 62a2 803e 3ca7 663d
00000030: c23e 263a c48b fc3d fbb1 37be fe6a 843e
00000040: 84dd cdbd 8a0b 2f3e bef6 603e 23b1 093e
00000050: ed5e 8c3c 8ae5 d13d 2ca6 75be 2959 49be
00000060: 1e9c 21bf 832a 94bd da52 143e fc3f 25be
00000070: de5b 84bd 2d76 f33d 1e6a 2d3d 86ef 38bd
00000080: 9500 d73d cf61 373d ce4a 1e3e e584 b3bd
00000090: 593a 83be fa0e 65bd bbd0 9cbe 48c9 813d
000000a0: cac0 c8bd 9b94 bb3d fded 61bd 7871 a5bd
000000b0: e960 debc 7a4f 6d3e 09cc 723d 2f82 0f3e
000000c0: caf2 3bbe 7ae5 f33d 3ea2 20be cf74 55be
000000d0: 4e1a aabd e1b7 edbe db0d 723c 2154 47bd
000000e0: 9a5d 3a3e 6162 1c3e 3bd2 b13d 9063 20ba
000000f0: 3d34 e93d f031 f03d b93a 7b3e 702d a9bd
00000100: c6d2 3cbe e40b a83d dc67 953d 994d 003e
00000110: fe73 99bd a8f5 6abe 0ac2 893d 8dc0 a23d
00000120: e958 bbbe 76a4 b2be b78b 243c 4e56 c2bd
00000130: 6054 9ebd e073 39be 72e8 09be 00a5 aabd
00000140: 86b6 6dbd b94e 2c3e 2322 113e c5ed 353d
00000150: 2c20 2d3d 5e0b ffbd ec53 b3bb dc31 853e
00000160: 52fa 213e e9b7 783e 6324 03bd 6237 4a3e
00000170: 4ea1 5b3e 6407 723d bd02 f63d 85ee 2fba
00000180: e91a 123e 45f1 313d 002b 90bd df4b 71bd
00000190: edc5 b43d 4357 b33d 9da2 26bd e577 8a3d
000001a0: 19d1 b2be b4d0 13bd 33f8 8abc 2bde af3d
000001b0: 32cc cc3d cd6b 85be aaaa 503d 31c0 98bd
000001c0: 9eeb 533c dcd7 3b3c f980 4abe 33a5 ac3b
000001d0: 70c9 013e cde2 0b3e 6908 b13d c0ff 0c3d
000001e0: b0c3 9ebd cadc 443d b142 033d f4ba 9ebd
000001f0: ef81 8cbd b0c9 6a3d e2d6 12bd 4742 64be
00000200: d3f1 c23d cb17 0abd 1dd3 87be 16a0 4abe
00000210: a5f3 5fbe 9d03 60be a10c 94bd f4a5 a9bd
00000220: 7ed2 05bd b5ad 6c3d 8c43 02be 2fad e2bd
00000230: 020a 543d d3fb 4cbe 72a4 75bd 7ff8 febd
00000240: 2167 713e ad87 e73c 3a5b b1bd 8601 91bc
00000250: 5474 0dbf 1b7d ccbe fda0 f53d 922c 8e3c
00000260: ba87 383c 2cbd 833d aa00 353c df1c 263e
00000270: 129b 1dbe 8740 1cbd b077 613c 6c9b 3ebe
00000280: b9e9 20bd 6fe1 b23d 6ebd b43c f4d7 653d
00000290: df96 b33d 418e bfbc 32c1 5cbd baee 643e
000002a0: b2d1 d33d 8dc6 ccbd e270 52be 8d1c a0be
000002b0: 8e5d afbe 247b 2abf 3f8a 723d 4ef9 353e
000002c0: 7e53 b93d 583e ee3c 1df2 073d 5160 59be
000002d0: 589a ee3d 4d1e 1b3e 687d 2c3d b88e dbbd
000002e0: 67db 7abd 2d66 163e aaf4 e73a 5aa3 60be
000002f0: 1d61 24bb e5a8 543d 29d9 1d3d 8bfa 063e
00000300: 6ae7 c7bd 0d08 0ebf 0db9 a8be 9844 a7bc
00000310: 9707 b5bb 8bf7 5d3c 47ca e6bd 04e8 203e
00000320: e4b1 4b3e e798 6cbb fe9a d5bd e6b1 c6be
00000330: 1ec3 fabd 0885 493e ae62 45bd 686c 78bc
00000340: 5c88 a83e c57d 6fbe 5e93 0d3e e438 623e
00000350: 7a4f 5a3e 4502 8a3d 19c6 6a3d 6cbe 303d
00000360: db4c 013e fa57 fe3d 7799 15bc 62b2 4d3d
00000370: b882 eb3b 0586 15be 31c5 94be 10a4 6bbe
00000380: 78eb b2bc 9011 9d3c 700c babd 79af 87be
00000390: a86b 70be ed9f debd 5a99 993d 8f6a 033e
000003a0: 5e47 f33d 6145 c73d 425a 493e d2b8 8a3a
000003b0: 6080 603d 6648 5d3e c9bc 2f3d cc10 18be
000003c0: 1d8d 44bd 0e99 4ebe d5b0 1a3e 294a aebd
000003d0: 32e1 70bd d616 403d 7561 78bd 01ae a53c
000003e0: 7344 1c3e a594 c13c f991 8ebc 471c 403c
000003f0: 7edc 1bbe 6aef 4fbb 25a5 d6bd ef0b a2bd
-0.06254407 0.050956905 0.107689746 0.07187288 0.2664755 -0.09085181 -0.15567966 -0.09594397
0.28034765 0.09154846 0.25123888 0.05631183 0.0006341749 0.12331346 -0.17938988 0.2586288
-0.100520164 0.17094246 0.21969125 0.13446479 0.017135108 0.10248859 -0.23989171 -0.19662918
-0.6312884 -0.07234671 0.1448473 -0.1613769 -0.06462835 0.118877746 0.04233753 -0.045150302
0.10498158 0.044771012 0.15458223 -0.08765582 -0.25630453 -0.055922486 -0.30628 0.063372195
-0.098023966 0.091592036 -0.055158604 -0.08078283 -0.02714582 0.23174849 0.059276614 0.14014505
-0.18354335 0.119090036 -0.1568689 -0.2084534 -0.083057985 -0.4642935 0.014773811 -0.048664216
0.18199769 0.15271904 0.086826764 -0.00061183516 0.11386917 0.11728275 0.2453412 -0.0826062
-0.18439779 0.08205393 0.072952 0.12529601 -0.07492827 -0.22945273 0.06726463 0.079468824
-0.3659127 -0.348911 0.010043076 -0.094891176 -0.07730937 -0.18110609 -0.13467577 -0.083322525
-0.058035396 0.16826905 0.14173178 0.044416208 0.04226701 -0.1245334 -0.0054726508 0.26014602
0.15818146 0.24288906 -0.032017123 0.1974769 0.21448252 0.05908908 0.12012241 -0.00067112624
0.14268078 0.043442983 -0.070394516 -0.058910247 0.08826814 0.08756878 -0.040682424 0.06761149
-0.34925154 -0.036087707 -0.016964054 0.08587297 0.09999885 -0.26058808 0.050944008 -0.074585326
0.0129345935 0.011465039 -0.19775762 0.0052687167 0.12674499 0.13660736 0.08644182 0.03442359
-0.07752168 0.048062123 0.032046024 -0.07750502 -0.0686072 0.05732125 -0.03584946 -0.22290908
0.095187806 -0.033714097 -0.26528254 -0.1978763 -0.21870287 -0.21876378 -0.07228971 -0.08283606
-0.032671444 0.057782847 -0.1272108 -0.110681884 0.051767357 -0.20017938 -0.05997128 -0.124497406
0.23574497 0.028262937 -0.08659978 -0.017700922 -0.5525563 -0.39939198 0.11993597 0.017355237
0.0112628285 0.06432566 0.011047522 0.16221951 -0.15391186 -0.038147476 0.013761446 -0.18613976
-0.039285395 0.08734404 0.022062983 0.056114152 0.08769011 -0.023383262 -0.053895183 0.22356692
0.103427306 -0.09998808 -0.20550874 -0.31271783 -0.34251064 -0.6659415 0.059213873 0.17770883
0.09049128 0.029082462 0.03318988 -0.21228148 0.116505325 0.15148278 0.042111784 -0.10720581
-0.061244395 0.14687414 0.0017696817 -0.21937314 -0.0025082298 0.051918883 0.03853718 0.13181512
-0.097609356 -0.55481035 -0.32953683 -0.02041845 -0.0055245864 0.013547788 -0.1126905 0.15713507
0.19892079 -0.003610188 -0.10429953 -0.388076 -0.12244247 0.19679654 -0.04818981 -0.015162565
0.32916534 -0.23387821 0.13825747 0.22092015 0.2131938 0.06738714 0.057317827 0.04315035
0.12626974 0.12419124 -0.009130827 0.050218947 0.0071872137 -0.14601906 -0.29056695 -0.23011804
-0.021840796 0.019173414 -0.090844035 -0.26501063 -0.23478568 -0.10870347 0.074999526 0.12833618
0.118788466 0.0973003 0.19663337 0.0010583645 0.054809928 0.21609649 0.04290465 -0.14850157
-0.04798614 -0.20175573 0.15106519 -0.08510239 -0.058808513 0.046896778 -0.060639817 0.020224573
0.15260486 0.02363045 -0.01740359 0.011725492 -0.1522083 -0.0031728395 -0.104807176 -0.079124324

conv2.0.bias f4 [128]
00000000: ce1e 8bbd 2361 293e 5031 4c3e ae81 06be
00000010: 1da3 533e 0803 5b3e 0dd7 633e f779 19be
00000020: baa9 273e d0ba c33e 53a1 71bf 566b b83d
00000030: 7271 4ebd 4a8c c7be 81a5 123d d28a 5abe
00000040: 9259 213e 240b a73d 1071 853e 9044 64be
00000050: 98ba 8e3e 3c9d 893d 89e7 003e d85b 8abf
00000060: a680 ca3b f7ff 823e a284 aebd 3698 883e
00000070: 5665 00be f8e7 acbe 70ef 7b3e 56c5 c8bd
00000080: ff36 8dbe 4ff7 a6bd 0766 8fbe e59e 913d
00000090: 56a2 453e 28d7 11bc 6059 8e3e e8e5 48bf
000000a0: 45a6 0f3e e209 a63e b4f2 1c3e a182 4ebf
000000b0: 45a1 e5bd c817 873d 6b83 d4bd 46e5 d9be
000000c0: a9dd 343e 3b32 d93d cd03 2bbe 5170 233d
000000d0: 7364 bfbe 9639 09be 0a43 edbd 2ee9 ab3e
000000e0: 4876 dfbc b801 fb3d 991a 9abe 9272 82bd
000000f0: 83b6 08be 3386 aabe fa96 5c3e 5ace afbe
00000100: 8cb7 2c3e 50ad 133e 1f6b 77be 3f68 86bd
00000110: f23f 67bd c26d 91be f1b0 0dbf 8e56 213e
00000120: fe79 903d b2c7 26be e963 e53e a294 343d
00000130: 42df 11bf 8bf5 71bd 17e0 a53e 66e6 8bbd
00000140: 19f5 aebe 887f cb3b fc2f 98be 5590 e63d
00000150: 98cb ec3d 3f4c 93bd 0229 e03d e4bf 18be
00000160: 111e 38bd c5d3 fbbe 7ac8 063d 6a76 d2be
00000170: 1351 19be 8c5d 87be 12d3 633e df8b c1be
00000180: 251e 25bf 37c8 ec3e 5b6f e5be 832a 7ebe
00000190: 962f fabd c395 8abe b575 bf3e e893 83be
000001a0: eb48 6d3c 6ce1 ab3e 7675 0fbe 3c6b a9bd
000001b0: 1469 4fbe 10c0 5bbe 0fb4 bbbe 5e9b 1b3e
000001c0: 19ba 41be 47f0 143e 54e9 55bd 8b42 d8bd
000001d0: bf54 433d 84c2 0fbf a6db 2cbf 4813 f2bc
000001e0: c6c3 253e 4be3 303d 6e9e 8cbd 9592 6abd
000001f0: acbb b4be ef43 95be 68bd 87be 8caf 403e
-0.06792985 0.16540961 0.19940686 -0.13135406 0.20667692 0.21387875 0.22250004 -0.14987932
0.1637334 0.38228464 -0.94386786 0.09004848 -0.05040116 -0.3897422 0.035802368 -0.21342018
0.15756825 0.08156422 0.26062822 -0.2229178 0.27876735 0.06719443 0.12588324 -1.0809278
0.006179887 0.2558591 -0.085213915 0.26678628 -0.12538657 -0.33770728 0.24603057 -0.09803264
-0.2758102 -0.08152639 -0.28007528 0.07110385 0.19300207 -0.008901395 0.27802563 -0.7847581
0.1402827 0.32429415 0.15326959 -0.80668074 -0.112124 0.06596333 -0.103766285 -0.42557734
0.17662682 0.10605284 -0.16700669 0.039902035 -0.37381324 -0.13400874 -0.11585052 0.3357634
-0.02727808 0.12256187 -0.30098417 -0.06369509 -0.13350873 -0.3330551 0.21541968 -0.3433712
0.16866893 0.14421582 -0.24161957 -0.06562852 -0.056457467 -0.2840405 -0.55348116 0.15755674
0.07054518 -0.16287115 0.44802788 0.04408706 -0.5698129 -0.05907206 0.3239753 -0.068310544
-0.3417137 0.0062102713 -0.2972411 0.11257998 0.1156227 -0.07192277 0.109453216 -0.1491695
-0.04495055 -0.49185005 0.032906033 -0.41105968 -0.14972334 -0.26438558 0.22248486 -0.37802026
-0.6449912 0.46246502 -0.4481152 -0.24820904 -0.122161075 -0.27067384 0.3739449 -0.2569878
0.014482717 0.3357042 -0.14009652 -0.082724065 -0.20254928 -0.21459985 -0.3666081 0.15195987
-0.18918647 0.14544784 -0.052224472 -0.10559567 0.047688242 -0.5615618 -0.67522657 -0.02955021
0.16187963 0.043185513 -0.068661556 -0.057268698 -0.35299432 -0.29153392 -0.26511693 0.18816966

conv3.0.weight f4 [256, 128, 5]
00000000: c372 193e 569e aabd 4892 e7bd e1dc 33be
00000010: 8ad9 e83d a4f2 24bd 041d 573d 69d6 d63d
00000020: 090f e7bc de4a bc3d 15a2 c2bc 0733 313d
00000030: 7b11 ae3c 9538 d73d 8c01 b03d 738d c0bd
00000040: a55d 49bd 67f4 27be cd83 2dbe 5ba4 843a
00000050: c144 12be b51d c6bd 8236 2fbe 82cd 623e
00000060: 2c77 81be a604 5fbd 0cd4 b9bd ef69 293d
00000070: 755d a33d fddf 18bd 6f6d 0abe e73f 71be
00000080: a30b 21be 801e 63be 040b e53d deea 22be
00000090: f435 9fbd 2638 04bc bd47 ec3b f154 d73d
000000a0: 5ed3 7f3c d666 06be 20ec 063e a2c7 90be
000000b0: 7131 c0bd d0c2 c53c 33d5 6dbd bad4 92bc
000000c0: 9040 df3b 4c30 babc 4773 603e 21d0 8a3d
000000d0: ed51 fa3d 993a a53c 2dfe 8c3d a6e5 18ba
000000e0: c6e2 423d 5b03 c13c 7dfd a23d 7884 42bd
000000f0: 0c76 e8bd aea0 103c 8b3e cc3d 3c01 46bd
00000100: e30e 16be a1f5 673e 8dd1 0f3d 0a95 363e
00000110: 4a11 b3bc ce7a 413e 64f5 b0be d71e 6dbd
00000120: 78f6 19be 2b80 5dbe d6af 8bbd 7fbe 9c3d
00000130: 0421 e83d a66a 863d faff a93d edb1 c9bd
00000140: 2e3c 2ebe 7054 0abe 15c9 c9be 7352 75bd
00000150: 622a dabd 5c9c 70be d205 09be 21da 7b3b
00000160: 546b 8fbe f142 443b 5fd1 e2bd 2533 eebd
00000170: 2c74 86bd 7c9f da3c d10f ba3d d079 cbbd
00000180: df28 34be 8fa3 68be e47b dd3d c736 c23e
00000190: 265b 74bd d8f5 c73d 9d79 b7bd edcf 233e
000001a0: bb9a 9ebe e920 d53d 6e90 dd3d 990b c0be
000001b0: 1783 c03d 707a 97be e09d 4dbe b67d 4fbd
000001c0: 275f 263d ad0e ccbd d7a6 8bbe 0df4 e3bc
000001d0: e62b da3c a973 1a3d 014c 8b3e 47ee 093e
000001e0: b61e 1cbd 0c8c 16bd ce5b dd3d 36be 67be
000001f0: e5f4 23be 9f2c 15bd 336d 07be 22e7 8dbd
00000200: 5b76 2f3d 8f21 df3d 4bf3 0bbe 3335 143c
00000210: 7c88 a3bc 76c4 883e 1126 cb3d a4d6 59be
00000220: da27 893c 2742 9f3d 1d3c 033e 2082 9a3d
00000230: a3fb 553e 2e98 8abc 5647 79bd f976 8ebd
00000240: 756d 5b3e 1b87 dabc 67cd 1e3e 0932 7f3c
00000250: 5477 643c 7b9a 9d3e d295 26bc 85ca 5fbd
00000260: b5ea 11be a66c 96be 2390 acbe 7326 4bbd
00000270: 0bb7 a8bd ac4f 723d 1783 0d3e 8597 4f3e
00000280: ad7b 583e 82cc 583e a69c 2f3e ab1d 84bd
00000290: 1862 86be b8a3 993d dc0f e33b af49 fbbb
000002a0: 0b59 5f3c 16eb ddbc 000d 873d 0193 a23d
000002b0: 1962 bfbd ecda 64be 2d04 883e 8245 833c
000002c0: e82a 9ebd 2114 8d3d 03f5 42ba 0a30 04be
000002d0: 8554 cebd 498f 89be b7f5 6abe d9ba a4bd
000002e0: 2e25 12bf ffa7 a7be 909b 9fbe 5afe 8dbe
000002f0: 34ce 87bd de23 203e 186d bebd 3ae2 e1be
00000300: d526 a0be 0a70 31bf 013b 44be 3b4f a03d
00000310: 3f62 f03d a37f 363e 9ec5 733e 3aeb 663e
00000320: 4685 833d 5939 ca3e bbc0 a13e 35a2 85bd
00000330: 5a6b aebe c230 bfbd 763b aabd 237f 1bbe
00000340: 5b6b aa3d ce44 4fbd 3845 a7bd 1001 98bd
00000350: 58f4 2b3c bc80 aa3d ae84 94bd 5a63 4f3d
00000360: 282d 7f3e 0291 643e a248 0d3e c072 e43e
00000370: efd3 a63d dea3 c4bd dce8 a43d 1408 d0bd
00000380: cade e73d 2cbb ee3d 1e27 3c3c ef2e 113e
00000390: 876e 8abe 11fd 13bd 3367 26be 1070 273d
000003a0: a7ee 393e 5e2f e3bb 07ca 48be 4191 9fbd
000003b0: ab44 e13d 8f40 09be 9e85 20bd fbb1 9d3d
000003c0: 96c5 2e3d 5cb4 72be 2b2c 49be 9764 f1bd
000003d0: 3b07 98be 3b19 8b3d 8e2c 0e3d 35bc 983d
000003e0: 13ca 62bb 9b45 16be 53b9 bf3c 4ee0 033e
000003f0: 51ff 3e3e 1f05 d03c d8fa fd3d a69b a13d
0.14985184 -0.083309814 -0.11307198 -0.17564727 0.11369617 -0.040270463 0.052517906 0.10490114
-0.028205412 0.09193967 -0.023758927 0.043261554 0.02124857 0.10508839 0.08594045 -0.09401979
-0.049161572 -0.16401826 -0.1694481 0.0010119783 -0.1428404 -0.09673635 -0.17110637 0.22148708
-0.25286233 -0.054447792 -0.09073648 0.04136079 0.0797681 -0.037322987 -0.13518308 -0.23559533
-0.15727095 -0.22179604 0.11183742 -0.15909907 -0.077739626 -0.008070027 0.0072107003 0.10514248
0.015614359 -0.13125166 0.13176012 -0.28277308 -0.0938443 0.024140745 -0.05806465 -0.017923702
0.0068131164 -0.022728108 0.21918975 0.06777979 0.12222657 0.020169543 0.06884418 -0.000583256
0.04757955 0.02356117 0.07958505 -0.047489613 -0.11350641 0.0088273715 0.099728666 -0.04834102
-0.14654116 0.22652294 0.035111953 0.17830291 -0.02185883 0.18894503 -0.34562218 -0.05789074
-0.15035427 -0.21630923 -0.068206474 0.07653522 0.11334422 0.0656331 0.08300777 -0.0984839
-0.17015144 -0.13508773 -0.39411226 -0.059893083 -0.10652615 -0.23497146 -0.13381127 0.0038429576
-0.28011572 0.0029947127 -0.110750906 -0.11630849 -0.06565127 0.026687376 0.09085048 -0.09935343
-0.17593716 -0.22718643 0.10814646 0.37932417 -0.05965724 0.09763688 -0.08958743 0.15997286
-0.30977425 0.10406668 0.108185634 -0.37508848 0.094000034 -0.295856 -0.20079756 -0.050656997
0.040618088 -0.09963737 -0.27275726 -0.027826333 0.02663226 0.03770796 0.27206424 0.13469802
-0.038115226 -0.036754653 0.10808526 -0.22631153 -0.16011389 -0.036419507 -0.1322525 -0.06928851
0.042837482 0.10895073 -0.13667028 0.009045887 -0.019962542 0.26712388 0.0991937 -0.21273285
0.016742636 0.077762894 0.128159 0.075443506 0.20896773 -0.016918268 -0.060859047 -0.06956286
0.21428473 -0.026675751 0.15508042 0.015575894 0.013944466 0.30781922 -0.010167556 -0.054636497
-0.1424969 -0.29379767 -0.33703718 -0.049597215 -0.08238038 0.059158012 0.13819538 0.20272644
0.21140929 0.21171764 0.171496 -0.06450971 -0.26246715 0.0750193 0.006929381 -0.007668696
0.013632069 -0.027089637 0.065942764 0.07938195 -0.093448825 -0.22349137 0.26565686 0.016024355
-0.077230275 0.06888605 -0.0007437022 -0.1290895 -0.100747146 -0.2686713 -0.22945295 -0.08043451
-0.5708798 -0.32745358 -0.31173372 -0.27733117 -0.06631127 0.15638682 -0.09298152 -0.4411791
-0.31279626 -0.69311583 -0.19163133 0.07827612 0.11737489 0.17822127 0.23805854 0.2255067
0.06421904 0.39496878 0.31592354 -0.06525079 -0.34066278 -0.09335472 -0.083121225 -0.15185218
0.08321258 -0.050602727 -0.08167499 -0.07422078 0.010495268 0.083253354 -0.07251869 0.05063186
0.2491957 0.22320941 0.13797238 0.44618797 0.08145892 -0.09601568 0.08052227 -0.10157791
0.113217905 0.11656794 0.011483936 0.1417806 -0.2703745 -0.036130015 -0.16250305 0.040878356
0.18157445 -0.006933137 -0.19608317 -0.07791377 0.109994255 -0.13403533 -0.039189927 0.07699963
0.0426689 -0.23701614 -0.19645755 -0.11786764 -0.29693016 0.06791922 0.03471046 0.07457773
-0.003460531 -0.1467499 0.0234038 0.12878534 0.18652083 0.025393067 0.1240136 0.07891016

conv3.0.bias f4 [256]
00000000: 2be8 76bf 9ae4 f1be 5c8e f0be 7d4d 96be
00000010: aa59 553c 8953 3cbe 28d7 1a3d 9f4c 4d3d
00000020: 604e 1dbf 40a8 0fbe 30b6 0d3e bcf7 9ebe
00000030: 3983 703e 883f 49be 1074 c53e 0a58 cc3c
00000040: bd28 37bf b63e a53d 6bae 883e 310d 27bd
00000050: 8464 15be 4097 30be 8ccf 813d 7028 ca3b
00000060: 0296 ccbe 2391 373c df4d 3ebd 0e83 2d3c
00000070: 4b04 09be 02ef 36bf cd2a 3bbd a878 16bf
00000080: cf41 18be eb25 2abd 96ce 57be f359 84bc
00000090: 3b05 0cbe 70eb 0f3d c1b5 16bd 4649 3a3d
000000a0: 93ec 19bf bc73 6c3d 83e0 a63c 8b4c 3dbf
000000b0: ab08 7abe 53f7 92bc 8abf 3d3c ebd5 03bf
000000c0: 217c bdbc f0ac 6dbd 141c 7c3e 7178 15be
000000d0: 4dd1 a9bf 1060 a4be d459 81bd efaf d7be
000000e0: 1744 49be d35f 4a3d 9e61 a6bd 8ccc 0b3d
000000f0: a8c7 9e3c 1c25 823e 1c50 103d 2c71 6d3d
00000100: 0f3c dfbc 573d 4fbd ba37 ac3e 36b3 3c3c
00000110: 67d2 f1bc 15a5 bfbb 9215 d63d b14a afbd
00000120: 53f9 48be ca75 a1ba 8909 de3d 3d87 20bf
00000130: fbf2 c0be 1792 82bd 6cc1 00bd 95ca 0bbc
00000140: 0e08 363c 0f6f 6b3d 6c41 81bd 3d26 d4bd
00000150: a4d8 9dbd f209 c63d 9510 11be db45 1a3e
00000160: 8176 453c 163f 8fbd aa65 a0be e284 ac3d
00000170: 06fd 69bd 67f2 93be bf1f 19bf 19f9 31be
00000180: df14 6e3b c90b 5ebd a2db 1dbf ad9f 3abd
00000190: 8a37 5abd 1337 093d af0e 95bd d4bb d3bc
000001a0: 0606 723d 88d6 e93d 30d9 9ebd d0e7 0fbb
000001b0: bac7 d93d d3d0 d6bc 2650 a9bd e6b1 0ebc
000001c0: 0231 e4be 796c e23c 0029 e5bd a0c9 4e3e
000001d0: 1730 dcbe 3db3 97bd c65e eebd d956 2bbe
000001e0: f38d 0d3d 72e4 143c ff02 cd3d 5ef2 7a3c
000001f0: eb90 9cbd fa2f 69bd 4d6d 14be a4a0 f5bd
00000200: 6104 b8be 1b63 3e3d 2072 56be 27d6 58bd
00000210: a85e 00be 65d3 0abe a3f4 583c 1688 21be
00000220: 4db5 183d dcb9 17be 1767 243e 6893 0b3e
00000230: 3914 29bf ad4a 86be 07ad a33d 96fe 4f3e
00000240: 8182 8dbf a572 28bd 895d 8fbe 61cd ae3d
00000250: 9034 813d 287a 4dbd 7ef9 bebe 7e18 a3be
00000260: 368b 80bf 0477 813d 0b3f bdbc 982a 29bf
00000270: fa3f e0bc fd2b 07be 063f b53d 7b4e 8bbf
00000280: a502 82be 1c17 4bbe e47b 483e 1ff6 05bf
00000290: 9717 b23c e79c 0bbf 5690 e0be d9de e33d
000002a0: 4a2d 47bd de11 383c 1378 25bd 309a 8ebd
000002b0: bf82 423d 9ca9 48bd 9539 42bf 3269 ef3c
000002c0: 6ac5 96bd 0c2a 03bd 74a7 93bd 8beb 8c3d
000002d0: 4cff 113d 8537 8c3d 3e43 8ebd 864c 933e
000002e0: 4a7d aabe 8d4d 3ebe 0068 80be 2768 a7be
000002f0: bb68 9cbe cb77 7dbf d045 a5bd 78b2 c9bd
00000300: 37a1 5cbc a08d ecbe d531 c83d 8816 ccbd
00000310: 2a1e 33be d75b 86be ef70 85be c532 0abf
00000320: e47e 7a3c 1ac2 ff3d 93f3 e0be 3118 1e3e
00000330: 2c2c 3bbe 6410 b8bc 76ca 0abf bd96 9ebd
00000340: c5d0 2e3d 31bd 04bd d4d6 e23d c4f7 c0bd
00000350: 4d30 c63e d92f a0bb 9768 6cbe a163 cc3d
00000360: a0c1 b2be 6422 15bf fcec 82bd 3a92 04be
00000370: 6c18 0a3d f545 72be d6fa 11be 2b19 5ebe
00000380: c49b cbbd ff16 acbe 8420 88bf 8cbd 72bd
00000390: c83d 8abd 49ca 5bbe 59d1 01be a3dc c0bd
000003a0: 6313 dfbd 46cc b93b 0570 afbe d2df 1fbe
000003b0: 3b7a a43a 04eb 8f3d 2e62 90bc 2f6a 12bc
000003c0: 4b7b 88bd c9b7 c93d f093 9fbd 078d 293d
000003d0: 9c9d 57bd 7b25 4ebd 32cf fe3d 25cf cfbe
000003e0: 3bf2 bebe 5e5b dcbd ec74 a9be a157 25be
000003f0: 4771 12be cb29 8c3e 3833 83be 3dd9 2fbe
-0.9644801 -0.47244722 -0.46983612 -0.29355994 0.013021866 -0.18391241 0.037802845 0.0501219
-0.61447716 -0.14029026 0.1383903 -0.3104838 0.23487557 -0.19653141 0.3856511 0.024944324
-0.71546537 0.08068602 0.2669557 -0.040784065 -0.14589125 -0.17245197 0.063384145 0.0061693713
-0.39958197 0.011204037 -0.046460982 0.010590328 -0.13380544 -0.71458447 -0.045695115 -0.58777857
-0.14868854 -0.041540068 -0.210749 -0.016156172 -0.1367387 0.03513664 -0.036794428 0.045480035
-0.6012661 0.05772756 0.020370727 -0.7394492 -0.24417369 -0.017940199 0.011581311 -0.5149829
-0.023130478 -0.058026254 0.24620086 -0.14596726 -1.3266999 -0.3210454 -0.063159615 -0.42126414
-0.1965488 0.04940779 -0.08124088 0.034130618 0.019382313 0.25418937 0.03523265 0.057969257
-0.027250318 -0.050595608 0.33636266 0.011517337 -0.029519273 -0.0058485367 0.10453333 -0.08559168
-0.1962636 -0.0012318429 0.108416624 -0.6270636 -0.3768538 -0.06375521 -0.03143446 -0.008532186
0.011110319 0.05747896 -0.06311306 -0.10358856 -0.077073365 0.09669866 -0.14166482 0.1506571
0.012052179 -0.069944546 -0.31327564 0.08423783 -0.057126068 -0.28895876 -0.59814066 -0.1738018
0.0036328358 -0.054210458 -0.6166326 -0.045562435 -0.053275622 0.03349979 -0.07278191 -0.0258464
0.059087776 0.11417872 -0.07756269 -0.002195824 0.10633798 -0.026222622 -0.0826724 -0.0087094065
-0.4456864 0.027639614 -0.11189461 0.20194101 -0.4300544 -0.07407234 -0.1163917 -0.16732349
0.0345592 0.009087669 0.10010337 0.015316574 -0.076448284 -0.05693052 -0.1449482 -0.119935304
-0.3594084 0.046481233 -0.20941973 -0.052938607 -0.12536108 -0.13557203 0.01324192 -0.15774569
0.037282277 -0.14816993 0.1605495 0.1363045 -0.6604648 -0.26228848 0.07991987 0.2031196
-1.1055452 -0.04112496 -0.2800105 0.08535267 0.063088536 -0.050165325 -0.37299722 -0.31854624
-1.0042484 0.063215286 -0.02310135 -0.6608062 -0.027374256 -0.13200374 0.088499114 -1.0883325
-0.25392643 -0.19833034 0.1957851 -0.52328676 0.021739764 -0.5453629 -0.4386012 0.11126489
-0.048627175 0.011234729 -0.040397715 -0.06963003 0.04748797 -0.048989877 -0.75869113 0.029224966
-0.073618725 -0.03202252 -0.072096735 0.06880864 0.03564386 0.06846527 -0.06946419 0.2876932
-0.33298713 -0.18584271 -0.25079346 -0.3269665 -0.30548653 -0.99010915 -0.08069956 -0.09848493
-0.013466171 -0.462018 0.0977513 -0.09965235 -0.17491975 -0.26241943 -0.26062724 -0.5398372
0.015289042 0.12488194 -0.43935832 0.15438916 -0.18278569 -0.022468753 -0.5421518 -0.07743595
0.042679567 -0.03240699 0.110761315 -0.094222575 0.38708726 -0.0048885164 -0.23086773 0.0997994
-0.3491335 -0.582556 -0.063928574 -0.12946406 0.033714697 -0.23659499 -0.14255843 -0.21689288
-0.09941819 -0.33611295 -1.0634923 -0.059262797 -0.06750065 -0.21463884 -0.12677516 -0.09417083
-0.108923696 0.0056701032 -0.34265152 -0.15612724 0.0012548635 0.070272475 -0.01762494 -0.008936449
-0.06664141 0.09849507 -0.07791889 0.04139426 -0.052640542 -0.050328713 0.12441863 -0.40587726
-0.37294182 -0.107596144 -0.33097017 -0.16146709 -0.14301024 0.27375636 -0.25625014 -0.17172714

fc_adv.0.weight f4 [32, 256]
00000000: 64e9 803d 15c8 913d 1141 7a3e 9d4f 9c3c
00000010: efd9 71be f614 49bd ef31 c6bc 382a 56be
00000020: 3d48 f13e 1ec1 ba3c bc4c b7be 1ee6 493c
00000030: 3554 703d 5ca5 043e 3085 7e3c 7d76 8b3e
00000040: 112b 20be c35d b4be 4e44 f43c 8801 183e
00000050: 45b6 a9bd 3eb4 4d3b 136d 07be 0392 ad3b
00000060: 961e 523e 6e40 e7bd d0bb aa3d 8de0 ffbd
00000070: e708 4ebe b9f1 943e bc8a 933d a926 6cbe
00000080: 61d9 44bc 510c 00bd 6438 8bbe d62d 203b
00000090: bcaa 5bbe 5248 0c3e 79c6 cf3c f0b3 aa3d
000000a0: 618a 0ebe af8e 57bd 5247 83bd b842 3ebe
000000b0: 9e93 05bc 131e 3ebe f1d0 5a3e b1e4 44bc
000000c0: 18ad c1be 9ca5 afbe be1b 81bc a835 493e
000000d0: eaaa a83c b67e 963e 0d4c 80bb a0aa 80bc
000000e0: 29c1 f93d eb25 583e 06fc c33c e985 963a
000000f0: d5a5 5f3e 0688 91be bb44 71be f1a2 033e
00000100: 138a 813c 8911 15be 452d 26be 0d71 febd
00000110: 5ccb 17bd 2e05 bdbd bc2e c2bb e508 5a3e
00000120: 6c51 073d 1236 df3d 5f66 323d 1e12 383e
00000130: 013f 813d b79c 98bd 84d4 3a3d ea38 c83c
00000140: 62cb e83d 15e2 313e ce93 023d d1e5 e43c
00000150: 9615 cb3d 96bf a23d f956 773e 72a5 013e
00000160: ace7 a03e ecfe 84bc c363 a53d 7ad7 4f3e
00000170: a5d7 c4bd a6e3 8b3d 5405 123e 5822 75bd
00000180: 9621 bdbb 8dd3 2d3e 4dae 983e ff73 8dbd
00000190: 0158 523c 6b6b e0bd e084 103c 8d45 b2bc
000001a0: 5b2c 8f3e 2f7b 1abd 13e2 053e 73cd 9a3d
000001b0: faea a4bd 924f a13c 8f7b 1e3f c047 353b
000001c0: c3cd 8e3d d492 bcbe e359 c33b ae44 ad3c
000001d0: 6d7d 9e3d c3b0 f73d e430 1d3d 524b 2e3d
000001e0: d4ff 01be 18bc ce3a b118 b5bd 4e3b 533c
000001f0: 16c8 803d 46b9 7ebd 39b3 a0bb d220 333c
00000200: 6bce a8bd 4ad2 c5bc c141 c03a 9632 fa3c
00000210: 5396 99bc 8df7 be3d 55d7 053b d46f a1bd
00000220: 9132 9d3c ebd0 c83d 19c1 f1bd bf7e 9e3d
00000230: f656 e73d ca89 ef3c cb6e 3c3d 6b60 cebd
00000240: 17a2 0e3d fb34 9dbd 12e2 123e ca3b 17bf
00000250: 7ebf 603e bb06 bdbd 8f32 1c3c 660e b03e
00000260: e0f5 34bd 86c0 a2bd c6ab 22bc 220e 603d
00000270: d2d7 053d ef09 9e3d f2ea 4d3c 2e38 dbbc
00000280: 53c6 343f e745 31bd 79bc d5be 08ce ec3e
00000290: fc15 42be 01d2 2e3e aafe 263e 70f0 cebe
000002a0: 70e5 17be 8c3a ea3c 68a7 13bc ea9b bc3e
000002b0: b031 32bd 5388 9039 19ff 973e 9844 9fbe
000002c0: 8427 753c 69b1 cc3d c510 b73d ee85 21be
000002d0: 40a5 013e 1a0b 313d a03c d5bd 7324 0a3e
000002e0: 64fa c2ba bb28 a13e a12f 2cbe 4ddd 3a3e
000002f0: 062f e3bc d4fa e53d 7889 86be c1ae d7bb
00000300: e020 883d 7719 9b3d 6c0e 31be 186a 6e3e
00000310: 400f b73e d92f 373e eace 23bd 0a2f 273d
00000320: 9e4f 8fbe dbf0 b93e 2217 863d fc12 8fbd
00000330: 24d5 ef3d 5f4d cb3c 7179 8dbb 7def 1d3d
00000340: 1d97 b6bd d730 79bd b67e 58be 43fc 2f3f
00000350: 1e8b a13d 5de0 3d3e c227 783d 3a83 a5be
00000360: 5b17 b63d 4d22 cf3e 261a 363d 6bd0 163d
00000370: 5dc2 3ebe bb45 5b3e dc6b 993e 4d58 8f3e
00000380: 4b78 d0bd 3d7c 213e 09dd 093d 14d6 2e3d
00000390: 2aae 17be 32b0 8f3e 6798 9dbc f958 043d
000003a0: 3199 823e f10c 54bb 4352 473e 3cb4 2d3a
000003b0: 0148 57b8 cff9 e93d aa85 3a3d 0386 4a3e
000003c0: 038d f4bd c7df db3b 5b60 c53c ead3 d4bd
000003d0: 6542 7b3c 5326 4cbc 7a2f 3b3c c1fc e33e
000003e0: dc9f 1abd ad00 983e 468a f9bd f70a 5c3e
000003f0: 345f 233e 77b9 33bc 55a2 fabc 3e30 b63d
0.06294516 0.07118241 0.24438883 0.019080931 -0.23618291 -0.049092256 -0.024193732 -0.20914543
0.47125426 0.022797164 -0.3580073 0.012322931 0.058674056 0.12953705 0.015534684 0.27238837
-0.15641429 -0.35227785 0.029817726 0.14844334 -0.08286718 0.003138795 -0.13225202 0.005296947
0.2051948 -0.11291586 0.08336604 -0.124940015 -0.20120583 0.2909067 0.07204196 -0.23061623
-0.012014718 -0.031261746 -0.2719146 0.0024441383 -0.21451849 0.13699463 0.025363194 0.083351016
-0.13919975 -0.052626308 -0.06410088 -0.18580139 -0.00815287 -0.1856616 0.21368767 -0.012017415
-0.37827373 -0.34306037 -0.015760299 0.19649374 0.02058931 0.29393548 -0.003915316 -0.01570636
0.121950455 0.21108215 0.023923885 0.0011484 0.21840604 -0.2842409 -0.23561375 0.12855126
0.01581291 -0.1455747 -0.16228206 -0.124239065 -0.037059173 -0.092295036 -0.0059259813 0.21292455
0.033036634 0.10898985 0.04355466 0.17975661 0.06310845 -0.07451766 0.045612827 0.024441201
0.11366917 0.173714 0.03187924 0.027941616 0.099162266 0.07946698 0.24154271 0.12660769
0.31426752 -0.016234837 0.08075669 0.20297042 -0.096114434 0.0683053 0.14259845 -0.059847206
-0.005771826 0.16975231 0.2982048 -0.0690689 0.012838365 -0.10957988 0.008820742 -0.02176168
0.27963528 -0.037715133 0.13074522 0.075587176 -0.08052631 0.019691262 0.61907285 0.0027661175
0.0697284 -0.3683077 0.005961643 0.021150913 0.07738767 0.120942615 0.038376704 0.0425523
-0.12695247 0.0015772609 -0.088426 0.012892557 0.06288163 -0.06218841 -0.0049041775 0.010933118
-0.08242496 -0.024148125 0.0014668034 0.0305417 -0.018748438 0.0932456 0.0020422537 -0.07882658
0.019189151 0.09805473 -0.118044086 0.07739019 0.11295883 0.029240508 0.046004098 -0.10076984
0.03482255 -0.07676121 0.14344051 -0.59075606 0.21948048 -0.09229799 0.0095335385 0.34385985
-0.044179797 -0.07946877 -0.009928649 0.054700978 0.032676525 0.077167384 0.012568222 -0.026760187
0.7061512 -0.043279555 -0.41745356 0.4625094 -0.18953699 0.17072298 0.16308084 -0.40417814
-0.14833617 0.02859237 -0.009012081 0.36837703 -0.043504417 0.0002756739 0.29686812 -0.3110702
0.014963035 0.09994776 0.089387454 -0.15773746 0.12660694 0.043223478 -0.10411954 0.13490467
-0.0014875648 0.31476387 -0.16815044 0.18248482 -0.027732383 0.11229482 -0.26276755 -0.0065821116
0.066468954 0.075732164 -0.17290658 0.23282659 0.35753822 0.17889346 -0.03999225 0.040816344
-0.2799043 0.3631657 0.06547381 -0.06986043 0.11710575 0.024817167 -0.0043174555 0.038558472
-0.08915541 -0.060837593 -0.21142086 0.68744296 0.078878626 0.18542619 0.06058479 -0.3232668
0.088911735 0.40455857 0.04445853 0.036819857 -0.18628831 0.21413319 0.29965103 0.27997056
-0.10179194 0.1577005 0.03365806 0.04268463 -0.14812532 0.28064114 -0.01923771 0.032311413
0.255075 -0.0032356346 0.19464974 0.0006626283 -5.1327053e-05 0.114246 0.04553763 0.19777684
-0.11940958 0.006710026 0.024093797 -0.10391982 0.015335654 -0.012460309 0.0114248935 0.44528773
-0.03775011 0.29688016 -0.12184577 0.21488558 0.15954286 -0.010969511 -0.030594984 0.0889592

fc_adv.0.bias f4 [32]
00000000: a390 163e 7d89 723a e428 5cbe a2ea 59bd
00000010: e66b 0dbd ae44 4f3e d1e8 2bbd be20 b63d
00000020: e245 5a3d 72b0 5e3d 7d39 bc3e 6976 9e3c
00000030: 8bf3 1abb 48f9 933d 1269 813d 1d88 0d3d
00000040: 0a24 1bbe 7b31 bb3c f79a bdbc 99ca 3dbd
00000050: 1794 04be 068a 19bd a584 c83d 588f 323d
00000060: 0023 673e 063a 2b3d 8715 82bd bd6f df3d
00000070: d763 2bbd 0681 a53c b149 b1bd b006 54bd
0.14703612 0.0009252055 -0.21499974 -0.05320228 -0.034526728 0.20241043 -0.041970078 0.08892964
0.0532893 0.05436749 0.3676261 0.019343572 -0.0023643698 0.07225281 0.06318869 0.034553636
-0.15150467 0.022850743 -0.023145182 -0.04633579 -0.12947117 -0.037485145 0.09790925 0.043593735
0.22571945 0.041803382 -0.06351762 0.10909984 -0.04184326 0.020203125 -0.08656634 -0.05176419

fc_adv.2.weight f4 [20, 32]
00000000: 3712 3fbe b02d a8bc 0eb8 2dbe c6a7 b23d
00000010: 896a 783e 1d32 acbe faa2 933c 09e3 683d
00000020: 83d4 8dbe 971c 653d e3e2 0dbe 3f20 a1be
00000030: 525c 27bf 3557 993d 601f 0bbe d376 49be
00000040: 96f4 173e 62ff 623e 8e64 a8bd b718 983e
00000050: f6fa b73e 7840 c1bd 3242 9cbe b683 453e
00000060: 60a4 e6bb 9667 633d 0b59 86be b9eb 9f3d
00000070: e6d0 d1be 705b a93e d64e 12be bc69 c3bc
00000080: 37ce a5be 472a 2abe 9469 153e bb45 3d3d
00000090: f2de a5be 9353 c8bd 1e12 8a3c 0aa4 703c
000000a0: d002 a73e 32be b8be 968a 053e e46f 9fbc
000000b0: 599e 173c 8131 883d ca0d 663e 6bb1 0cbe
000000c0: 5a78 3cbe 4f0d 153e c5de 9f3d dd65 f43b
000000d0: 4c5c d0bc 3eb5 b9bd 3d1f 58be 260c 843e
000000e0: c0f4 5bbe 160a 64be 375d dd3e e569 d1bd
000000f0: 77d9 453e dc5f 093e bd79 3abe 7f83 7fbe
00000100: 21ca d53d 94e2 d1be 65c5 44bd dc56 033e
00000110: bf44 eb3d 625f 87be 7ef1 0f3c d5d6 a7be
00000120: b5fa 773d 5c4c 1abe 91a0 a0bd 1c5f 203e
00000130: 6f69 32be 51ed 523c edc3 c3be 780d f73d
00000140: bdf6 073d 7a39 c43d 4e2a 32be d28b f03c
00000150: be46 2c3d d6e9 2fbc 587c 323e a958 99be
00000160: 4672 cb3e a64a 8bbd 8e53 203d 5ecb 0abe
00000170: 60a5 743d 9a04 57bd 8878 7e3e f522 983d
00000180: c34e 54bc f10b 723e bad9 823e 2115 c7bd
00000190: ed64 24be 7b11 a63e 3655 edbd aebd 4fba
000001a0: d11b 19bb 46a7 2cbe 0690 1dbe 9934 57be
000001b0: 2859 9cbd f562 75be 1218 703e 44ae 013e
000001c0: 8fc9 78be a102 10bd cac1 0dbd b091 c13e
000001d0: d1d6 df3d 9a4f 41bd d68b fabd b609 86be
000001e0: c3ff b6be 61b8 b9bd 26a7 71bd 9232 853d
000001f0: 95c3 343d 86bd 983e f1c6 d3be 3d8e fabc
00000200: 00d4 a3be 4c94 d03e 1a00 1dc0 6e31 3abe
00000210: 213a 9f3e bdca 89be 218b dcbf 9b8c 7c3d
00000220: 67e5 e4bf e02a 803f a3c6 2240 1b6e 05bf
00000230: 9b48 6e3f eb38 abbf 181d f4bd 7c60 d2be
00000240: a7ee 86be 7a29 d1bf db38 14be 79cd 3ebe
00000250: 1803 36c0 0b0f 2ebe b334 f2be 2b83 0a3d
00000260: b984 623e c7b4 aa3b f087 89be 027c 183d
00000270: 74eb 02be 1467 2fbf eb55 cb3d 8b39 9e3e
00000280: 36bf 7dbd 695c 4ebc 49a8 a0bd c851 773e
00000290: 1d98 05be bb69 5dbe c03f 17bd 4eb1 9f3d
000002a0: 008a e53d 6897 313e e2f8 babd 7ef4 fb3d
000002b0: b134 49bd aa00 f6bd c39c 87be 51f3 febe
000002c0: 98ca 1a3e 0213 023f 8d5f b33d 9024 77be
000002d0: 29e3 713e 7086 e7bd 05bf 8dbe b49c c33e
000002e0: 0cf2 a43d f25c 223c 9d8b 543e dbc3 6a3c
000002f0: 3bfa 3bbe 75eb 083e 3d5e 8dbe 3cd9 84bd
00000300: 73f9 95be 3ffa 743d c059 583e 59e0 783e
00000310: dea8 3a3f fe19 e6bd 6dbb 5bbd 786c 483e
00000320: 9529 f83d 2b7e cdbe 0a64 453d abf1 a83d
00000330: 3ea8 b1be e37b 893e bae9 f5bd 3de7 133f
00000340: b387 87be b6e0 283e feeb 21be c6ae 423d
00000350: 92aa 0c3c c218 a3bd 5223 303e cffb 29bd
00000360: b227 a83e 6df8 913e cf93 bbbe 52e9 d7be
00000370: 3d81 2dbe 8e42 61bd ec0c b9bd ccda 8a3c
00000380: 8851 1b3e 0f04 cebe e6b6 893d 1736 04be
00000390: 96f1 a03e 8b0b a1be 0c16 193d 2c0e 80be
000003a0: efca ecbd 6be7 b5bc 14dc 0abe 739b e6bd
000003b0: 43a1 3e3d c1c0 903e ecf4 b6be 104e a23d
000003c0: 249f 0d3e 7354 1a3d cb7c 00be 0918 3bbd
000003d0: 3a25 f1bd b882 86be 0a50 233e 263e a2be
000003e0: 4daa 7a3e 028f e03c 33fd 45be ce81 803c
000003f0: f84e 0e3e 71fd 623e 5c42 6d3e 495d 7bbd
-0.18659292 -0.020529598 -0.16964743 0.087234065 0.2425939 -0.33631983 0.01802205 0.056857143
-0.27701196 0.05593547 -0.13856082 -0.31469914 -0.65375245 0.074873365 -0.13586187 -0.19674234
0.14839396 0.22167733 -0.08222304 0.29706356 0.35933656 -0.094361246 -0.30519253 0.19288525
-0.007038638 0.05551871 -0.2623981 0.078086324 -0.4097969 0.33077574 -0.14287886 -0.023854129
-0.32383892 -0.1661769 0.14591056 0.04620908 -0.32396656 -0.097815655 0.016854342 0.014687547
0.32619333 -0.36082608 0.13041148 -0.019462533 0.009254062 0.06650067 0.22466198 -0.13739555
-0.18405285 0.14555858 0.07806162 0.007458432 -0.025434636 -0.09067772 -0.21105666 0.2579052
-0.21480083 -0.22269472 0.4323518 -0.10225276 0.19321238 0.13415474 -0.18210502 -0.24952506
0.10438944 -0.40993178 -0.048039813 0.12826103 0.11487722 -0.2643996 0.008785604 -0.3278109
0.060541827 -0.15068191 -0.078431256 0.15661281 -0.17423032 0.012873963 -0.38235417 0.12063116
0.033194292 0.09581275 -0.1739895 0.029363547 0.042059653 -0.010736903 0.17430246 -0.29950455
0.3973562 -0.068013474 0.039142184 -0.13554141 0.059728026 -0.052494623 0.24850667 0.074285425
-0.012958231 0.23637368 0.25556737 -0.09720827 -0.16054125 0.32435212 -0.11588518 -0.0007924688
-0.0023362527 -0.16860685 -0.15386972 -0.21016158 -0.07634193 -0.2396353 0.23446682 0.12664133
-0.24295639 -0.035158757 -0.03460864 0.37806463 0.10929645 -0.047195055 -0.12233703 -0.26179284
-0.35742006 -0.090683706 -0.058997296 0.06503786 0.044131834 0.29832095 -0.41362718 -0.030585403
-0.3199768 0.40738142 -2.4531312 -0.18182918 0.31099036 -0.2691249 -1.7229959 0.06165753
-1.7882508 1.0013084 2.5433738 -0.5212113 0.9307954 -1.3376745 -0.11919612 -0.41089237
-0.26353952 -1.6340783 -0.14474814 -0.18633069 -2.8439388 -0.16997926 -0.4730583 0.033816498
0.22120942 0.0052095386 -0.26861525 0.037227638 -0.1278513 -0.6851666 0.09928497 0.30903277
-0.06194993 -0.0125952745 -0.07844598 0.24152291 -0.13046308 -0.21622364 -0.03692603 0.0779749
0.11207962 0.17342913 -0.09129502 0.123024926 -0.049122516 -0.120118454 -0.26486787 -0.4979501
0.15116346 0.50810254 0.08758459 -0.24135041 0.23621811 -0.11304939 -0.276848 0.38205492
0.08053979 0.009909855 0.20756383 0.014328922 -0.18357174 0.1337107 -0.2761096 -0.06486747
-0.29291877 0.059808966 0.21127987 0.24304332 0.7291392 -0.11235426 -0.05364554 0.19572628
0.12117306 -0.4013532 0.048191108 0.082492195 -0.3469867 0.2685233 -0.120074704 0.57774717
-0.26470718 0.1649197 -0.1581268 0.04752996 0.008585589 -0.079637066 0.17200974 -0.04149991
0.32842785 0.28509846 -0.36636207 -0.42170197 -0.16943832 -0.054995112 -0.09035668 0.016950034
0.1516782 -0.4023747 0.06724338 -0.12911259 0.31434315 -0.3145412 0.03737454 -0.25010812
-0.11562144 -0.022205075 -0.13560516 -0.11260118 0.04654051 0.2827206 -0.35733736 0.079250455
0.13830239 0.037678193 -0.12547605 -0.04567722 -0.117746785 -0.26271605 0.15948501 -0.3168804
0.24479027 0.027411941 -0.19334869 0.015686896 0.13897312 0.22166993 0.23169845 -0.06136826

fc_adv.2.bias f4 [20]
00000000: 378f cf3c 322c c9bd 9a3a 8bbc d5cd 39be
00000010: dd0e 99bd 9fff 81bd 2509 4ebe fa21 9cbd
00000020: ee75 a5be 3d13 c6bd 1d8d 53bd 02f9 12be
00000030: 6b63 94bd 3065 87be 575d aebd 25f7 173b
00000040: 61b6 9dbe 3ab6 12be 95d0 87be edcd d1bd
0.025336845 -0.09822883 -0.016995717 -0.18144925 -0.07473538 -0.06347584 -0.20120676 -0.07623668
-0.32316536 -0.09671638 -0.051648248 -0.14352801 -0.07245525 -0.26444387 -0.08513897 0.002318808
-0.30803207 -0.14327326 -0.26526323 -0.10244355

fc_val.0.weight f4 [32, 256]
00000000: d358 13be 12b5 6ebd 79bc 823d d94d 9e3c
00000010: fae7 903e db19 d13e 5443 873c ca24 963e
00000020: 1714 513e f947 313d 3624 b0bd 8620 0f3e
00000030: c101 cabd a161 a03e 37aa 82bc 45a8 bb3d
00000040: d0bb 98bd 0148 32be 683e c6bb aed4 3a3f
00000050: 9246 06bb 073e ac3d c2f1 183e fc6e 993d
00000060: 68ed f6bd 9188 0a3d 4c2c 9c3c 1512 31be
00000070: 4bde 9a3c 303c 123e 1f12 06be df0c a83c
00000080: 7446 aa3e f9d9 383d c155 abbd 7978 72bd
00000090: 06ae 033e 65da bc3e 2b29 4bbd 5c8e 3cbe
000000a0: 80d5 ce3e ddee 3bbe dffe 28be 5650 32bd
000000b0: 0c8e c6bd a676 28be ae09 ab3d 56f3 e33c
000000c0: 07a5 3b3d 2a1a 623e d95e bc3d 34bd 463e
000000d0: 46ec 94bd e856 88be 1439 3b3c 593a 03bc
000000e0: 60ce 2e3d 276f 9c3e a9a8 9abd 0377 47bc
000000f0: 7797 a5bb 2708 25be 75e7 c4bc c964 a63e
00000100: 7644 18bc 86b6 e53d 9724 d8bb fe34 9d3e
00000110: d603 2fbe 11dd 39be 23e8 f6bd baab c5bd
00000120: 9196 06be 1d67 1bbe 0455 563d d768 bc3e
00000130: 8b82 5fbd 4626 2c3e c75b 023f c160 4a3d
00000140: b6e5 853e 7802 803c fcec 123d cff1 aa3e
00000150: 05bf 923e 1035 8abd 9090 a43e d7a9 23be
00000160: e128 bb3e f8c2 113e dac4 d23a 0b36 91bc
00000170: b58a bc3e 149a 4d3d 95e5 fbbc 2d02 593f
00000180: 13ca c33d b36e 423e 22bb 29be 616f 683e
00000190: 2483 dcbd 9b1a 44be fd54 1abe c13f 1a3e
000001a0: 7988 733e e332 973d 5377 9f3e ba58 9a3e
000001b0: 2aa5 ac3d 0eff 6fbe 25ee 823e 6c60 81be
000001c0: 7c6b 7ebd 7df9 803e ce8d 1f3e 98c3 903b
000001d0: 5d61 b1bd 9fd3 e93b 0226 f43d 1503 af3f
000001e0: b642 c83e 552e 263d 1f97 cc3d a952 943e
000001f0: 1a76 d23e 170f b83e a79c 993c 92d2 2c3e
00000200: 7c85 273d 5dac dd3b 9714 05bd faab a9bd
00000210: dde9 2c3e e03a 3f3e 8195 04bc 492c 8f3e
00000220: 2d44 763c ff39 013e 934b fe3d 3bc1 22bd
00000230: 4b0d 1bbe 271d 96bb 5c62 00bd 47d4 0dbf
00000240: b896 9f3d 1ed4 b93b a783 6fbe 9682 c4bd
00000250: c43f ad3e e1d8 ae3e 1e5b 323c 7dcb 0d3e
00000260: 1111 27be d4b9 01be 35e1 15be 505b 17bc
00000270: 1e94 2abd e59a 633e 9204 793d 38f0 483d
00000280: 40d8 c2bd 3ecd 943d 1b54 113e bf45 223e
00000290: 62ae 713e 80aa 7abd 9e70 253e 32c1 debe
000002a0: e7d2 893e 24c9 a73e 965e 873c ebcc 143e
000002b0: 416a 9b3e 5249 bb3e 042c a8bd 5dfc c93e
000002c0: 9869 d83c 7b36 26be dd09 1b3f a8af ccbd
000002d0: d747 5b3e f217 aa3c 4117 173e 502e fdbd
000002e0: 0959 0a3d fac5 4e3e 19f1 be3e 412a db3d
000002f0: a7e0 953d 69cc 5d3e e552 163e 82a1 493d
00000300: fa2c 36be 7a7d 71ba 58e0 0f3d eaa4 8f3e
00000310: c747 c93e 15bb 253d b0bd 103e 2329 d03d
00000320: 51d0 a33e 8193 eabc 4cd8 f7bd f729 77be
00000330: 05b6 193e 2f43 143e a22a 36be 50cc 7d3e
00000340: 8888 a33e e77c 853e c30d 8fbe 8682 713d
00000350: cf61 8c3d a77c 98ba 683e 633d bb94 93bd
00000360: f6f0 ef3b e8a4 013f 50ed 4fbd 6418 023c
00000370: c533 3ebe b074 0e3f d437 c63e b3eb 983e
00000380: 5756 e63e b7a3 4abe 52e1 cd3c e3a2 423e
00000390: dd22 5a3e 00a0 a13e f427 07bd 179c 363d
000003a0: f3c8 bb3e f0fd ff3b ce3b 723d ca4b 723e
000003b0: 6903 1c3f 3c58 12be 6823 b33e 650e 413e
000003c0: d378 913e 9b9f 0ebe e6ce 30be ec02 a0be
000003d0: 2d41 d63d a554 723d 42d0 943e 59ac 973e
000003e0: 775d 413e 015e 46be 14d0 003d 9d5b 43bd
000003f0: 4873 9f3d 2c11 99bd 6ab6 acbc 25cb b13c
-0.14389353 -0.05827815 0.063836046 0.01932423 0.28301984 0.4084004 0.016511597 0.29324943
0.2041782 0.04328153 -0.08600657 0.1397725 -0.09863616 0.31324485 -0.015950305 0.09162954
-0.074576974 -0.1741028 -0.00604992 0.72980773 -0.002048884 0.08410268 0.14935973 0.07491872
-0.120570004 0.033821646 0.019064091 -0.17292054 0.018904826 0.14280772 -0.1309285 0.02051395
0.33256876 0.04512975 -0.08365966 -0.059196923 0.12859353 0.36885372 -0.049599808 -0.18413681
0.40397263 -0.18352838 -0.16503476 -0.043533646 -0.09695062 -0.16451511 0.08351456 0.027825993
0.04581168 0.22080293 0.09197778 0.19408113 -0.07271628 -0.26628804 0.011427183 -0.008009517
0.042677283 0.30553553 -0.075517006 -0.012174371 -0.0050534564 -0.16116391 -0.024036149 0.32498768
-0.009293666 0.11216454 -0.0065961587 0.30704492 -0.17091307 -0.18150736 -0.12055995 -0.09651895
-0.13143374 -0.15176053 0.05232717 0.36798736 -0.054567855 0.16811475 0.5092129 0.049408678
0.26151818 0.015626177 0.035870537 0.3338761 0.2866136 -0.06748402 0.32141542 -0.15982758
0.36554626 0.14234531 0.0016080395 -0.017725965 0.36824575 0.05019577 -0.030749122 0.84768945
0.09560027 0.18987541 -0.16575292 0.22698738 -0.107672006 -0.19150774 -0.15071483 0.15063383
0.23782529 0.07382753 0.31145725 0.30145818 0.0842994 -0.2343714 0.25572315 -0.25268877
-0.062114224 0.25190344 0.15581438 0.004417848 -0.08661149 0.007135823 0.11921312 1.3672816
0.39113396 0.04057153 0.099897616 0.28969315 0.4110573 0.35949013 0.018751455 0.16877201
0.040898785 0.006764932 -0.03249034 -0.08284755 0.16886087 0.18674803 -0.008092285 0.27963474
0.015030903 0.1261978 0.124167584 -0.03973506 -0.1514179 -0.004581112 -0.031343803 -0.55402035
0.07792419 0.0056710383 -0.23390065 -0.0959522 0.33837712 0.3414984 0.010885982 0.13847156
-0.16315104 -0.12668544 -0.14636691 -0.009238079 -0.04164516 0.22227056 0.060795374 0.049057215
-0.09513903 0.07265709 0.1419224 0.15846919 0.23601678 -0.061197758 0.16156241 -0.4350677
0.26918718 0.32770646 0.016524594 0.14531295 0.30354503 0.36579376 -0.0821152 0.3945035
0.026417539 -0.1623172 0.60561925 -0.09994441 0.21414123 0.020763371 0.14754964 -0.12362349
0.033776317 0.2019271 0.37293318 0.10701419 0.0731824 0.21660008 0.14680059 0.04922629
-0.17790595 -0.0009212118 0.03512606 0.28055507 0.39312574 0.04046162 0.1413486 0.10164096
0.3199487 -0.028634788 -0.12101802 -0.24137102 0.15010841 0.14478754 -0.177897 0.2478497
0.31940103 0.26071855 -0.27940187 0.058962367 0.06854593 -0.0011633829 0.055479437 -0.072061025
0.007322426 0.5064225 -0.05076343 0.0079403855 -0.18574436 0.556468 0.38714468 0.29867324
0.44987747 -0.19789015 0.025131855 0.19007449 0.21302362 0.31567383 -0.032997087 0.044582453
0.3667675 0.007812254 0.059139065 0.23661724 0.60942703 -0.14291471 0.3498795 0.18853147
0.28412494 -0.13928072 -0.17266425 -0.3125223 0.1046165 0.059162755 0.29065138 0.29623678
0.1888331 -0.19371797 0.03144844 -0.04769479 0.0778566 -0.074739784 -0.021083076 0.021703312

fc_val.0.bias f4 [32]
00000000: f47d 8b3e 7cc7 313e 22a5 943d 2de8 32be
00000010: 2017 893d 1b31 323e 4a96 353e 4396 973d
00000020: 4327 a53d 45d4 1a3e 94ec 92bc 1585 c1bd
00000030: dff8 4ebe 2d2b 47bd 0890 d33d 0e58 10be
00000040: 730a cabc 4a80 183e 53f1 e8bd 5ddd 3bbe
00000050: 2daa 333d d3ad fabd 1465 90bd e2e6 e73d
00000060: ad27 f73b 0193 d2bd 4c7f 2b3e 46bf 80bd
00000070: 6722 323c 80c6 0c3e e283 a8bd b005 8d3d
0.27244532 0.17361253 0.07258059 -0.1747138 0.06693864 0.17401545 0.17733112 0.07401707
0.08064129 0.15120037 -0.017935075 -0.094492115 -0.20212124 -0.04862516 0.10330206 -0.1409609
-0.024663186 0.14892688 -0.11374154 -0.18346162 0.043863464 -0.122401856 -0.07050529 0.11323334
0.0075425715 -0.10281945 0.16747779 -0.062864825 0.01087246 0.13747597 -0.0822828 0.068858504
